…
CevCod (InputLayer)             [(None,)]            0                                            
__________________________________________________________________________________________________
DocFecMonth (InputLayer)        [(None,)]            0                                            
__________________________________________________________________________________________________
ArtCod (InputLayer)             [(None, None)]       0                                            
__________________________________________________________________________________________________
embedding_CliCod (Embedding)    (None, 64)           64064       CliCod[0][0]                     
__________________________________________________________________________________________________
one_hot_PncFlgPsp (Lambda)      (None, 2)            0           PncFlgPsp[0][0]                  
__________________________________________________________________________________________________
one_hot_CevCod (Lambda)         (None, 15)           0           CevCod[0][0]                     
__________________________________________________________________________________________________
one_hot_DocFecMonth (Lambda)    (None, 12)           0           DocFecMonth[0][0]                
__________________________________________________________________________________________________
add_one_pad_zeros_ArtCod (Lambd (None, 16)           0           ArtCod[0][0]                     
__________________________________________________________________________________________________
concatenate (Concatenate)       (None, 93)           0           embedding_CliCod[0][0]           
                                                                 one_hot_PncFlgPsp[0][0]          
                                                                 one_hot_CevCod[0][0]             
                                                                 one_hot_DocFecMonth[0][0]        
__________________________________________________________________________________________________
masked_embedding_ArtCod (Embedd (None, 16, 128)      384128      add_one_pad_zeros_ArtCod[0][0]   
__________________________________________________________________________________________________
repeat_vector (RepeatVector)    (None, 16, 93)       0           concatenate[0][0]                
__________________________________________________________________________________________________
concatenate_1 (Concatenate)     (None, 16, 221)      0           masked_embedding_ArtCod[0][0]    
                                                                 repeat_vector[0][0]              
__________________________________________________________________________________________________
conv_0 (Conv1D)                 (None, 13, 128)      113280      concatenate_1[0][0]              
__________________________________________________________________________________________________
rnn (Bidirectional)             (None, 256)          269568      concatenate_1[0][0]              
__________________________________________________________________________________________________
conv_1 (Conv1D)                 (None, 10, 128)      65664       conv_0[0][0]                     
__________________________________________________________________________________________________
dropout (Dropout)               (None, 256)          0           rnn[0][0]                        
__________________________________________________________________________________________________
flatten (Flatten)               (None, 1280)         0           conv_1[0][0]                     
__________________________________________________________________________________________________
concatenate_2 (Concatenate)     (None, 1536)         0           dropout[0][0]                    
                                                                 flatten[0][0]                    
__________________________________________________________________________________________________
dense (Dense)                   (None, 512)          786944      concatenate_2[0][0]              
__________________________________________________________________________________________________
dense_1 (Dense)                 (None, 3000)         1539000     dense[0][0]                      
==================================================================================================
Total params: 3,222,648
Trainable params: 3,222,648
Non-trainable params: 0


21537/21537 [==============================] - 150s 7ms/step - loss: 4.4806 - accuracy: 0.1787 - val_loss: 4.6630 - val_accuracy: 0.1767
Epoch 7/15
21531/21537 [============================>.] - ETA: 0s - loss: 4.4612 - accuracy: 0.1798  
…
